checkpoint.pth (torch_old, 28447 bytes, 6 tensors)

fc1.weight f4 [64, 37]
0	0x3e0638b2	0.13107565
1	0x3e6d6fce	0.23187181
2	0x3e365a56	0.17807898
3	0x3dc563e7	0.096381955
4	0xbdc8ec73	-0.09810724
5	0x3dfbb154	0.12289682
6	0x3e004566	0.12526473
7	0x3c33c16f	0.010971411
8	0xbb8d2bee	-0.0043082153
9	0xbeddef57	-0.43346664
10	0x3d8e6f6f	0.06954848
11	0x3e2752d6	0.16340193
12	0x3e5e8e0d	0.21733876
13	0x3da6f011	0.08151258
14	0x3dc0b1d8	0.09408921
15	0x3d531036	0.05152913
16	0x3d30f614	0.04320343
17	0x3d8d62ac	0.06903586
18	0x3dd3e45d	0.10346291
19	0x3dbb280e	0.09138499
20	0xbd312be7	-0.04325476
21	0xbc75d133	-0.01500349
22	0x3d781ebd	0.06057619
23	0x3d751215	0.059831697
24	0x3c824b30	0.015904993
25	0x3ea02a46	0.31282252
26	0xbf2972ea	-0.6619097
27	0xbe89f21a	-0.2694252
28	0xbf0d003b	-0.55078477
29	0xbfea087d	-1.828384
30	0x3dac2760	0.08405948
31	0x3db2eb9f	0.087363474
32	0x3dfe3439	0.124123044
33	0x3e612e3d	0.21990295
34	0x3dcd8c18	0.100364864
35	0xbcb2f564	-0.021845527
36	0xbb375d78	-0.0027979296
37	0xbd13cc40	-0.03608346
38	0x3d2c7f0f	0.04211336
39	0x3c5b051c	0.013367917
40	0xbcf1d3d4	-0.029519953
41	0x3e0ef27d	0.1395969
42	0xbe943b24	-0.2895137
43	0x3e8c0779	0.2734945
44	0x3e014100	0.12622452
45	0x3e287047	0.1644908
46	0x3e7c6e00	0.24651337
47	0xbd8e4822	-0.06947352
48	0x3d7e3c66	0.06206932
49	0xbe366b0f	-0.17814277
50	0xbdb3dc28	-0.08782226
51	0xbd96760e	-0.07346736
52	0xbdf2b055	-0.11850039
53	0x3e166d8a	0.14690223
54	0xbe0a9efc	-0.1353721
55	0x3d4a2abe	0.04935717
56	0x3d2a85d1	0.041631524
57	0xbdf75759	-0.12077207
58	0x3ae1f4b4	0.0017239065
59	0x3cb923e6	0.022600126
60	0xbe1cb5ab	-0.15303676
61	0xbdb30e0f	-0.08742916
62	0xbdc1bfdb	-0.09460422
63	0xbd41318e	-0.0471664
64	0x3d38b919	0.045098398
65	0x3da4b816	0.08042924
66	0x3f184aa7	0.5948891
67	0xbd6c8338	-0.057742327
68	0xbe5ce61e	-0.21572158
69	0xbdb8e93c	-0.09028861
70	0x3e250e06	0.16118631
71	0x3e9e6038	0.30932784
72	0xbc8c8c97	-0.017156882
73	0x3b37aa4a	0.0028025084
74	0xbe6ef3c0	-0.23335171
75	0xbc2148f5	-0.0098440545
76	0xbdd33940	-0.10313654
77	0xbe8bbd74	-0.2729298
78	0x3e894a57	0.2681453
79	0x3e391fcb	0.18078534
80	0xbe0018c0	-0.12509441
81	0x3d827ec3	0.06371834
82	0xbd47f2b7	-0.048815455
83	0xbec5b9c7	-0.386183
84	0x3ec1bd2e	0.37839645
85	0xbec8e30b	-0.3923572
86	0xbe5b1110	-0.21393228
87	0x3b37b602	0.002803207
88	0xbe7e45b2	-0.24831274
89	0xbcd126a3	-0.025531119
90	0xbd099d31	-0.033597175
91	0x3dda2c81	0.1065302
92	0x3d7a109e	0.061051004
93	0x3cc0ffd0	0.02355948
94	0xbe315228	-0.17316496
95	0x3e03e77c	0.12881273
96	0xbddbb793	-0.107283734
97	0xbe1e5945	-0.15463741
98	0xbe77cb0e	-0.24198553
99	0xbe5cbff1	-0.21557595
100	0xbd232de3	-0.039838683
101	0x3c555e6c	0.013023
102	0xbe82aa27	-0.2552044
103	0xbf0f7ef9	-0.5605312
104	0xbd756807	-0.05991366
105	0xbeb9540e	-0.3619694
106	0x3d0f410d	0.034974147
107	0xbe901465	-0.2814056
108	0xbf6c95ec	-0.9241626
109	0xbe47df52	-0.19518784
110	0xbc24f74c	-0.010068726
111	0xbe89d026	-0.26916617
112	0xbe9a9e8a	-0.3019908
113	0x3e28b6d8	0.16476
114	0x3b842932	0.004033231
115	0xbec3f97a	-0.38276273
116	0x3ddf25ee	0.108959064
117	0xbef86b4f	-0.4851937
118	0xbd7854f2	-0.060627885
119	0xbd7efc85	-0.06225254
120	0xbf1adc52	-0.6049243
121	0x3e084cd0	0.13310552
122	0xbe83abe2	-0.25717074
123	0x3da6da91	0.08147157
124	0xbe865d29	-0.2624295
125	0xbdce0397	-0.100592785
126	0x3d4fb7f7	0.050712552
127	0xbed64976	-0.4185292
128	0x3e282c4f	0.16423152
129	0x3dca9013	0.09890761
130	0x3e44374b	0.19161718
131	0xbe0415bb	-0.12898915
132	0xbd114592	-0.035466738
133	0x3eb41f82	0.3518029
134	0xbe8db681	-0.27678302
135	0xbe70aa3d	-0.23502441
136	0x3d160268	0.03662339
137	0xbee15dd6	-0.44016904
138	0x3da28a44	0.07936528
139	0xbe07208b	-0.13196008
140	0x3db4cb75	0.08827869
141	0xbe0fb660	-0.14034414
142	0x3e5bb271	0.21454789
143	0xbe583355	-0.21113332
144	0xbd06f1e3	-0.032945525
145	0xbe22bc24	-0.15892082
146	0x3e3ee078	0.18640316
147	0x3c0abb33	0.008467483
148	0xbb693563	-0.00355848
149	0xbb374a38	-0.0027967822
150	0xbd5ef08d	-0.054428626
151	0xbe6afbee	-0.22947666
152	0xbd9d511d	-0.07681487
153	0xbde0da2d	-0.10979114
154	0xbe5cf270	-0.21576858
155	0xbc928919	-0.017887639
156	0x3e2a2385	0.16615112
157	0x3e81ce77	0.25352833
158	0xbd6f8fff	-0.058486935
159	0xbdd212b7	-0.10257476
160	0x3d0523d8	0.032504886
161	0x3db34696	0.087536976
162	0x3ec4b237	0.38417217
163	0xbdbf58cb	-0.09343108
164	0xbd06e44c	-0.032932565
165	0xbe2c96e6	-0.16854438
166	0xbe3360ee	-0.17517444
167	0x3d76c27d	0.060244072
168	0xbe374435	-0.17897113
169	0x3d8806fc	0.06641957
170	0xbe802e9c	-0.2503556
171	0xbd954d11	-0.0729009
172	0x3dbd2ff3	0.09237661
173	0xbcddb196	-0.027062219
174	0xbdf1c79b	-0.1180565
175	0xbe369d6c	-0.17833489
176	0xbecb5808	-0.397156
177	0x3df54f8e	0.119780645
178	0x3d688073	0.056763124
179	0x3d058574	0.032597974
180	0xbd8e0f5b	-0.069365226
181	0xbd1cdc2b	-0.038295906
182	0x3db84575	0.08997623
183	0x3e5dacd9	0.21647967
184	0x3d9b58b0	0.07585275
185	0xbbaf08f3	-0.005341643
186	0xbe2bbc11	-0.1677096
187	0xbee271c6	-0.44227427
188	0x3e9c6c79	0.30551508
189	0x3c83e905	0.016102323
190	0xbde11d13	-0.109918736
191	0xbe29a682	-0.16567424
192	0x3e1bbb33	0.1520813
193	0x3e561b60	0.2090888
194	0xbe97b3c1	-0.2962933
195	0xbe9fcb01	-0.31209567
196	0xbf05a61f	-0.52206606
197	0x3e7481ef	0.2387769
198	0x3dd3c534	0.10340348
199	0xbf47fcc0	-0.7812004
200	0xbdb9ca59	-0.09071798
201	0xbe81a8a8	-0.25323987
202	0xbeb420fc	-0.35181415
203	0x3e9c1af2	0.30489308
204	0x3e88c763	0.2671462
205	0xbd716515	-0.05893429
206	0xbdc7785c	-0.097397536
207	0xbe3379b5	-0.17526896
208	0xbf190e2c	-0.5978725
209	0x3e81e36b	0.2536882
210	0xbc834929	-0.016026096
211	0xbcc2112d	-0.02368983
212	0x3d83d505	0.064371146
213	0xbebf7adf	-0.3739843
214	0xbdd24f51	-0.10269035
215	0x3d9ca5b8	0.07648796
216	0x3e77497c	0.24149126
217	0xbe2adde4	-0.16686207
218	0xbee2d545	-0.44303337
219	0xbee9d342	-0.4566899
220	0x3d4cd119	0.0500041
221	0xbd0bcefc	-0.034132943
222	0xbc306b0f	-0.010767712
223	0xbd57d6ec	-0.0526952
224	0xbd3ca679	-0.0460572
225	0x3d1aea7d	0.03782128
226	0x3daee80d	0.08540354
227	0x3eaa9a4d	0.33320847
228	0xbf075ccf	-0.5287599
229	0xbf19d368	-0.60088205
230	0xbf4bfde4	-0.7968428
231	0xc023c3fd	-2.5588372
232	0x3e2aee8c	0.16692561
233	0x3e36309c	0.1779198
234	0x3d9cc306	0.07654385
235	0x3d048fe1	0.032363776
236	0x3ac5ab13	0.0015080891
237	0xbc5c71a4	-0.013454828
238	0x3c2b47f1	0.010454164
239	0xbd8376ba	-0.0641913
240	0xbdbcdae7	-0.0922144
241	0x3df1e30e	0.11810885
242	0x3cb07ef6	0.021544915
243	0xbddc6415	-0.10761277
244	0x3b854c58	0.004067939
245	0xbdde25be	-0.108470425
246	0xbdb56bec	-0.08858475
247	0x3d5e5897	0.054283705
248	0x3dc292f8	0.09500688
249	0x3de7f80f	0.1132661
250	0x3e190553	0.14943437
251	0x3e44212b	0.19153278
252	0x3bb3d2ca	0.0054877745
253	0xbadd053d	-0.0016862523
254	0xbd455b01	-0.04818249
255	0x3ce11834	0.027477361

fc1.bias f4 [64]
0	0xbcd444b7	-0.025911672
1	0x3d18deda	0.037321903
2	0x3de11bd3	0.10991635
3	0xbca39fc2	-0.01997364
4	0xbe719518	-0.23592031
5	0xbe292a09	-0.16519941
6	0x3cd70bb7	0.026250703
7	0xbd9b6752	-0.07588066
8	0xbe44b75e	-0.19210574
9	0x3ce57ee0	0.0280146
10	0xbde67add	-0.11253903
11	0xbe28f1fb	-0.16498558
12	0xbc33cd78	-0.010974281
13	0xbce29702	-0.027659897
14	0xbe45e5ba	-0.19325915
15	0xbd0226c7	-0.031775262
16	0x3bb73b6d	0.005591801
17	0x3dc7c4ec	0.09754357
18	0x3edd3d0a	0.43210632
19	0x3dc3b344	0.095556766
20	0xbcde613e	-0.027145978
21	0xbc482fef	-0.0122184595
22	0xbdfe98a8	-0.124314606
23	0xbbef0cb3	-0.007295215
24	0xbcd125f0	-0.025530785
25	0xbe46da58	-0.19419229
26	0xbe222345	-0.15833767
27	0xbe473a27	-0.19455777
28	0x3e49c31b	0.19703333
29	0x3d926263	0.07147672
30	0xbdf5b95a	-0.11998244
31	0xbe3874f5	-0.18013366
32	0xbe1dd315	-0.15412553
33	0xbde00014	-0.10937515
34	0xbe036f70	-0.12835479
35	0x3e11e720	0.14248323
36	0x3dff7616	0.12473695
37	0xbdcee222	-0.10101725
38	0x3d9a8564	0.075449735
39	0xbe3750e1	-0.17901947
40	0xbe5d9352	-0.2163823
41	0x3bf22eed	0.007390848
42	0xbdb15e4c	-0.08660564
43	0x3d90f4aa	0.07077916
44	0x3ca2f268	0.019890979
45	0xbe4a4520	-0.19752932
46	0xbe912606	-0.28349322
47	0x3d817a60	0.06322169
48	0xbe16453d	-0.1467485
49	0x3d9ee0be	0.0775771
50	0xbe2024bd	-0.15639015
51	0xbd40f3f9	-0.04710767
52	0xbe0e6701	-0.1390648
53	0xbdfad0b9	-0.12246842
54	0x3cf11715	0.029429952
55	0x3d28d65d	0.041220058
56	0x3d9cd744	0.07658246
57	0xbc751b89	-0.014960178
58	0xbd62baed	-0.055354048
59	0xbc5b9142	-0.013401331
60	0x3b986ba4	0.0046515036
61	0x3c66592d	0.014059347
62	0x3da7e776	0.081984445
63	0xbe9770c0	-0.2957821

fc2.weight f4 [64, 64]
0	0x3c159a77	0.009131066
1	0x3dd54532	0.104135886
2	0xbd53655f	-0.051610347
3	0x3bc4d303	0.0060066
4	0x3d2fbf38	0.04290697
5	0xbdf0fcc8	-0.11766964
6	0x3e0cff29	0.13769211
7	0x3d80b731	0.06284941
8	0x3d497248	0.049181253
9	0x3d5844a1	0.052799825
10	0xbdd2f6e3	-0.10300996
11	0xbe8265d2	-0.25468308
12	0x3e18279e	0.14858863
13	0x3e50b4cd	0.2038147
14	0xbe42c02d	-0.19018622
15	0xbc583ef2	-0.013198601
16	0x3c9a5b0f	0.018842248
17	0x3caf8745	0.021426806
18	0x3e897c00	0.26852417
19	0x3dce86ce	0.10084306
20	0x3d99e4a7	0.07514315
21	0x3e46ae8f	0.19402526
22	0x3b73db9d	0.0037209757
23	0xbd8791a5	-0.06619576
24	0x3e77ba57	0.24192177
25	0x3dd1d48d	0.10245619
26	0x3d175157	0.036942806
27	0xbe011c94	-0.12608558
28	0x3ea688a7	0.32526132
29	0x3d4c37a1	0.04985774
30	0x3dac90af	0.08426034
31	0x3e4cef93	0.20013265
32	0xbc8e6fe3	-0.017387336
33	0xbde76ed8	-0.11300439
34	0x3b6868f2	0.0035462943
35	0xbc78171f	-0.015142231
36	0x3dd3521d	0.10318396
37	0xbd93b370	-0.07211959
38	0xbd191dd2	-0.037381954
39	0xbbc8e5d5	-0.0061309137
40	0xbd0cf210	-0.034410536
41	0x3e5c13b8	0.21491897
42	0xbdf32018	-0.11871356
43	0xbbcafb32	-0.0061944956
44	0x3e0501ca	0.12988964
45	0xbdf42e96	-0.11922948
46	0xbc92c609	-0.017916696
47	0x3d484164	0.048890486
48	0x3b2aba25	0.0026050892
49	0xbccdc243	-0.025117045
50	0x3d958208	0.07300192
51	0x3dbf2dd3	0.09334912
52	0x3d60bac3	0.05486561
53	0x3d3f4706	0.046698593
54	0xbed39ac8	-0.41329026
55	0x3d063594	0.03276594
56	0x3dbf3e05	0.09338001
57	0xbd0fa17c	-0.035066113
58	0x3de06583	0.10956862
59	0x3e81b581	0.2533379
60	0xbd850493	-0.06495013
61	0x3d63aff3	0.05558772
62	0x3e62c1e3	0.22144274
63	0xbde615c7	-0.112346224
64	0x3ea3f775	0.32024732
65	0xbe1ae707	-0.15127192
66	0xb8ed199b	-0.0001130581
67	0xbd93a7e7	-0.07209759
68	0xbdef1660	-0.116741896
69	0x3e20b059	0.15692271
70	0xbed2ff16	-0.4121024
71	0xbd99c523	-0.07508304
72	0x3e0bdbd1	0.13658072
73	0x3c69df4b	0.014274429
74	0x3cc2a1b9	0.023758756
75	0xbd9c06dd	-0.076184966
76	0x3eee9d7b	0.46604523
77	0xbe04d026	-0.12970027
78	0x3e4681e7	0.19385491
79	0xbefd95d4	-0.49528372
80	0xbdda30d2	-0.10653843
81	0x3c5d6859	0.013513648
82	0x3cf9cc2a	0.03049286
83	0xbe2a2c7e	-0.16618535
84	0x3ce193be	0.02753627
85	0xbf3083d6	-0.68951166
86	0x3dcfee64	0.10152891
87	0xbc53694a	-0.012903521
88	0xbe9ccfae	-0.30627197
89	0xbdd87a1f	-0.10570168
90	0x3d0240a5	0.03179993
91	0xbe3fba50	-0.18723416
92	0xbeb532f8	-0.3539045
93	0xbdd707b1	-0.10499514
94	0x3e4207f1	0.18948342
95	0x3e7f8c09	0.24955763
96	0xb9a20e5e	-0.00030909752
97	0x3e55cbac	0.20878476
98	0x3b87ae12	0.004140624
99	0x3e3400f6	0.17578492
100	0x3d4e8b67	0.050425913
101	0xbd07b0fb	-0.033127766
102	0xbdf8a113	-0.121400975
103	0x3db7e965	0.08980063
104	0x3e307b96	0.17234644
105	0xbc97e074	-0.018539645
106	0x3d87cc3e	0.06630753
107	0xbe8291ea	-0.2550195
108	0x3d97204e	0.073792085
109	0x3e944947	0.28962156
110	0x3e3edf5d	0.18639894
111	0x3d436592	0.047704287
112	0x3e95ac3e	0.29232973
113	0x3cd494db	0.025949886
114	0xbe54ba66	-0.2077423
115	0x3d8b2f8b	0.067961775
116	0x3cc5078e	0.024051454
117	0x3d65b627	0.056081917
118	0x3e2e6208	0.17029583
119	0x3e5ee43b	0.2176675
120	0x3efc3c01	0.4926453
121	0x3caf8382	0.021425012
122	0xbe02ba11	-0.12766291
123	0x3e0c5379	0.13703717
124	0x3e00c51e	0.12575194
125	0xbee9e1d0	-0.45680094
126	0x3b86f2e1	0.004118309
127	0x3ddbb088	0.1072703
128	0x3d3ea552	0.04654438
129	0x3d14d9ef	0.03634065
130	0x3d97cc35	0.07411996
131	0xbdce084a	-0.10060175
132	0xbe140614	-0.14455444
133	0xbe1b2740	-0.15151691
134	0x3c361d02	0.011115314
135	0x3e4146a3	0.18874602
136	0x3d636bbb	0.05552266
137	0x3b03b85e	0.0020098905
138	0xbe1da09a	-0.15393296
139	0xbe0e1950	-0.13876843
140	0x3da86b53	0.082235955
141	0x3e4c58eb	0.19955795
142	0xbe4f932d	-0.20270987
143	0xbe81c6dd	-0.25347033
144	0xba8a978d	-0.001057373
145	0xbd35c36d	-0.044375826
146	0x3dcc2ae0	0.09969115
147	0xbe168a76	-0.14701256
148	0x3dc116bc	0.09428164
149	0x3e00f6f2	0.12594202
150	0x3e479869	0.19491734
151	0xbdbdb52e	-0.09263073
152	0xbce8499e	-0.028355416
153	0xbbb6e285	-0.0055812025
154	0xbd610a1d	-0.054941285
155	0xbd8ac26e	-0.06775366
156	0x3ecb639c	0.39724433
157	0xbd0dbe70	-0.034605443
158	0xbdd297df	-0.10282873
159	0x3da738cf	0.08165132
160	0x3e0ca78d	0.1373579
161	0xbc54086a	-0.012941459
162	0xbcbeca16	-0.023289721
163	0x3cd7b967	0.026333524
164	0x3d7b5534	0.061360553
165	0x3d5d7f2a	0.05407635
166	0x3dab45ae	0.083629
167	0x3d5ad014	0.053421095
168	0xbdeb6bc5	-0.11495165
169	0x3d805d4b	0.06267794
170	0xbb3ff888	-0.0029292423
171	0x3db4131c	0.08792707
172	0xbd6aba6e	-0.0573067
173	0xbdb71e95	-0.0894138
174	0xbd14ef66	-0.03636112
175	0x3ddf9981	0.109179504
176	0xbd157171	-0.03648514
177	0xba971e3c	-0.0011529396
178	0x3db33873	0.08751001
179	0x3d6b4e5a	0.05744777
180	0x3e0ca0e8	0.13733256
181	0xbc18872b	-0.00930957
182	0xbeb9b481	-0.36270526
183	0xbdd98643	-0.106213115
184	0x3da8bf44	0.08239606
185	0x3d18e4e0	0.037327647
186	0x3e35fdbd	0.17772575
187	0xbd36cd9a	-0.04462967
188	0xbe4112f7	-0.18854891
189	0xbc34ece2	-0.011042805
190	0x3d8913ed	0.06693254
191	0xbda98839	-0.082779355
192	0x3d79a953	0.060952496
193	0x3dc88fc3	0.09793045
194	0xbe98288e	-0.2971844
195	0xbf07a780	-0.5298996
196	0xbf3c522f	-0.735629
197	0xbd6179e1	-0.055047873
198	0xbc4b6abe	-0.012415586
199	0xbed0adc8	-0.40757585
200	0x3e070823	0.13186698
201	0x3d3ead70	0.04655212
202	0xbd8f9519	-0.0701086
203	0xbe69070e	-0.22756597
204	0x3dbb78e5	0.09153918
205	0xbded4ca2	-0.11586882
206	0xbe755900	-0.23959732
207	0x3d54c7b6	0.05194827
208	0xbee299d0	-0.44257975
209	0xbe8f8cc0	-0.2803707
210	0xbdadc3b8	-0.08484596
211	0xbead6eaf	-0.33873507
212	0xbc15c4a7	-0.009141124
213	0xbdb76b56	-0.089560196
214	0xbf2d7a1a	-0.6776444
215	0xbeafdd7b	-0.34348664
216	0xbda425a4	-0.08014992
217	0xbe3b000e	-0.1826174
218	0x3ea6917b	0.32532868
219	0xbf10889c	-0.5645845
220	0x3d2ea526	0.042637967
221	0x3ea84f1b	0.32872853
222	0xbdf9b0d5	-0.12191931
223	0xbac05969	-0.0014675084
224	0x3e38387d	0.17990299
225	0xbebfdcae	-0.37473053
226	0xbd959bbe	-0.07305096
227	0xbe13da12	-0.14438656
228	0x3e126c49	0.1429912
229	0xbdd8e1c8	-0.10589939
230	0xbd260a93	-0.040537428
231	0xbec7368c	-0.38908803
232	0xbe77d0dd	-0.24200769
233	0xbe8d99cc	-0.276564
234	0x3e4d98b4	0.20077783
235	0xbe892f6a	-0.26793987
236	0xbe7d472f	-0.24734186
237	0xbefd0ea8	-0.49425244
238	0xbca53347	-0.020166053
239	0x3d6fdbc0	0.05855918
240	0x3e0c34d1	0.13692023
241	0x3e18aceb	0.14909713
242	0xbe9ad50c	-0.30240667
243	0x3e16b44d	0.14717217
244	0xbed90a6e	-0.4239077
245	0xbdead8c2	-0.114671245
246	0xbde7c89f	-0.11317562
247	0xbe402b85	-0.18766601
248	0x3d933bd6	0.07189147
249	0xbeb4fc9f	-0.35348985
250	0xbe0d27a1	-0.13784648
251	0xbdf16093	-0.11785998
252	0xbec7e517	-0.3904197
253	0xbde92258	-0.11383504
254	0xbc0e9273	-0.008701908
255	0xbf1b5622	-0.60678303

fc2.bias f4 [64]
0	0x3f3ae86b	0.7301089
1	0xbd8f4274	-0.06995097
2	0x3f1444e0	0.57917595
3	0xbe6379e3	-0.22214465
4	0xbcd93814	-0.026515998
5	0xbde95b8f	-0.113944165
6	0x3df1ca2f	0.118061416
7	0x3d7ba300	0.061434746
8	0x3f09162b	0.5354945
9	0xba3a76c2	-0.0007113033
10	0xbe829095	-0.25500932
11	0x3d2835d6	0.041066967
12	0xbd552224	-0.052034512
13	0x3e25e702	0.16201404
14	0x3be28fb8	0.0069141053
15	0x3d987138	0.0744347
16	0xbeb003ab	-0.34377798
17	0x3e949e67	0.290271
18	0x3ecac886	0.39606112
19	0x3d97c30b	0.07410248
20	0xbe358223	-0.17725424
21	0x3d90a5f5	0.07062904
22	0x3b1d1af4	0.0023972364
23	0x3f3cbc26	0.7372459
24	0x3f3790be	0.71705234
25	0xbd1cc5db	-0.038274627
26	0xbdaf64af	-0.08564126
27	0x3e1edd70	0.15514159
28	0xbcaa8837	-0.020816905
29	0xbd9d3db2	-0.07677783
30	0x3d2da43d	0.042392958
31	0xbe0f7919	-0.14011039
32	0x3dc219e0	0.094775915
33	0x3e64b2a9	0.22333778
34	0xbe6c996f	-0.23105405
35	0xbe6d2a39	-0.23160638
36	0x3dea6fc2	0.11447097
37	0x3d3db2e2	0.046313174
38	0x3e9af8f8	0.30268073
39	0x3e22473e	0.15847489
40	0x3ecf297d	0.4046134
41	0xbe8d5eed	-0.27611485
42	0xbdf7985f	-0.12089609
43	0x3e9fa252	0.31178528
44	0x3f14947c	0.5803907
45	0x3f3fbe02	0.74899304
46	0x3dbd67ce	0.09248315
47	0x3e877036	0.26452798
48	0x3bc710c1	0.0060749953
49	0x3da29331	0.07938231
50	0xbd8588dc	-0.065202445
51	0x3e32ffc1	0.17480375
52	0xbe0dec11	-0.13859583
53	0xbdbb8ff5	-0.09158317
54	0x3cafeef2	0.021476243
55	0xbd98449b	-0.074349605
56	0xbdd94f9e	-0.10610889
57	0x3d54b987	0.051934745
58	0x3e9a9d97	0.30198357
59	0xbdc867c1	-0.097854145
60	0x3df86639	0.121288724
61	0xbd88c833	-0.0667881
62	0xbd908dbc	-0.07058284
63	0x3f00be32	0.50290215

fc3.weight f4 [4, 64]
0	0x3e8879e6	0.266555
1	0x3ed1ad12	0.40952355
2	0x3e69226d	0.22767039
3	0x3e86ce42	0.26329237
4	0xbda7f62d	-0.08201251
5	0x3d557fae	0.052123718
6	0x3edc9abe	0.4308681
7	0xbae0fad4	-0.0017164596
8	0x3e55a19e	0.20862433
9	0x3ea55bc3	0.3229657
10	0xbe9319d9	-0.28730658
11	0xbf306d9c	-0.6891725
12	0xbe5567c1	-0.2084036
13	0x3ddb28ef	0.10701167
14	0xbec25814	-0.37957823
15	0x3ec34def	0.38145396
16	0xbe442cfb	-0.19157784
17	0x3d848c53	0.06472077
18	0x3e8d03eb	0.27542052
19	0x3dacb5cc	0.084331125
20	0x3ed0fc73	0.40817603
21	0x3bd7d878	0.0065870844
22	0xbf239ad7	-0.6390814
23	0x3e83b0b7	0.2572076
24	0x3e531101	0.20611955
25	0x3dc0a32a	0.09406121
26	0xbdbafbcf	-0.0913006
27	0x3d16b3bc	0.0367925
28	0xbebf55f0	-0.37370253
29	0xbde00cf7	-0.10939973
30	0xbf00231c	-0.5005357
31	0x3c49169a	0.012273455
32	0x3ed110b5	0.4083306
33	0x3e4eaf93	0.20184164
34	0xbdd0e00f	-0.10198986
35	0xbe74e642	-0.23915961
36	0x3da83593	0.082133435
37	0x3f170142	0.58986294
38	0x3ecce7ce	0.40020603
39	0x3dd5beae	0.1043676
40	0x3e38a14f	0.18030284
41	0xbe4d5115	-0.20050462
42	0x3e168491	0.14699008
43	0x3e6f13d8	0.23347414
44	0x3e6cf329	0.23139633
45	0x3e7957a7	0.24349843
46	0x3e8a5b78	0.2702291
47	0x3d9f9317	0.07791727
48	0xbe8f0a53	-0.27937564
49	0x3e8d69b1	0.276197
50	0x3ee87cd9	0.4540775
51	0x3de5a5e1	0.112132795
52	0xbe5e5a0c	-0.21714038
53	0xbe66b61a	-0.22530404
54	0x3f19baf5	0.600509
55	0xbed81b30	-0.42208242
56	0xbe2797d6	-0.16366515
57	0x3e9c4847	0.30523893
58	0x3e6e54d9	0.23274554
59	0x3c5c8cd8	0.013461314
60	0x3b46aef5	0.0030316685
61	0x3e29489c	0.16531605
62	0xbba1cfca	-0.0049381005
63	0x3de56e8a	0.11202724
64	0x3e9eb15f	0.30994698
65	0x3ebcebcc	0.3689865
66	0x3e784d67	0.24248277
67	0x3dc81e73	0.09771433
68	0x3de70a48	0.11281258
69	0x3dbdd098	0.09268302
70	0x3ea21e39	0.31663683
71	0x3dbbf483	0.09177496
72	0x3e0852a2	0.13312772
73	0x3f082cc5	0.5319331
74	0xbe53edae	-0.20696136
75	0x3e1ffa57	0.15622841
76	0xbe4b5dbe	-0.19859979
77	0x3d8548a3	0.06507995
78	0x3e77a35f	0.24183415
79	0x3efe7da1	0.49705222
80	0xbe08715b	-0.13324492
81	0x3dbfa46f	0.09357535
82	0x3e867f99	0.26269224
83	0x3e8fe078	0.28100944
84	0x3ece9392	0.40346962
85	0x3e16aac9	0.14713587
86	0xbef40a2f	-0.4766402
87	0x3e429f96	0.1900619
88	0x3e7c5738	0.24642646
89	0x3db4f381	0.08835507
90	0xbe8c88b7	-0.27448055
91	0x3de4cacd	0.11171494
92	0xbdbde225	-0.09271649
93	0xbe0f39ed	-0.1398694
94	0xbedd0c43	-0.43173417
95	0x3aec88c9	0.0018046136
96	0x3eea9d92	0.45823342
97	0x3e468ae0	0.19388914
98	0xbe79459b	-0.24342959
99	0xbe6a9623	-0.22908835
100	0x3e1e760c	0.15474719
101	0x3f15d1fc	0.58523536
102	0x3eb20b20	0.34774113
103	0x3dc643ae	0.096808776
104	0x3e037e99	0.12841262
105	0xbe7e0187	-0.2480527
106	0xbd34eee2	-0.04417313
107	0x3e4e3b91	0.2013991
108	0x3e1b485b	0.1516432
109	0x3e5e1bf2	0.21690348
110	0x3ea609a1	0.3242922
111	0x3db57b96	0.08861463
112	0xbca8c346	-0.020600926
113	0x3eb8968f	0.36052367
114	0x3f057be8	0.5214219
115	0x3e0610a3	0.13092284
116	0x3c16607b	0.009178276
117	0xbdea3538	-0.11435932
118	0x3f453b80	0.77043915
119	0xbe9b7f7a	-0.30370694
120	0xbe6194f9	-0.22029485
121	0x3e85bf3e	0.2612247
122	0x3e30c6b5	0.172633
123	0x3c8e7948	0.017391816
124	0x3dd7ce7a	0.10537429
125	0x3e8d2b30	0.27572012
126	0x3d0d4130	0.034485996
127	0x3e5d25fb	0.2159652
128	0x3e798be9	0.24369778
129	0x3e837e31	0.25682214
130	0x3dfd38a9	0.12364323
131	0xbdf79427	-0.12088805
132	0xbe13b16e	-0.14423153
133	0x3f2ab4d6	0.66682184
134	0x3edbf88c	0.42963064
135	0xbd5aa0d8	-0.05337605
136	0x3db6c4de	0.08924268
137	0xbe847c6e	-0.25876182
138	0x3e0b774f	0.13619731
139	0xbeb7522b	-0.35804877
140	0xbe92e7c1	-0.2869244
141	0x3e35f55f	0.17769383
142	0x3e6c512a	0.23077837
143	0x3ebdd5eb	0.3707727
144	0xbc5601f6	-0.013061991
145	0x3e0bb5d7	0.13643585
146	0x3e87fcd3	0.26560077
147	0x3ebecbb1	0.3726478
148	0x3ef317ce	0.474791
149	0x3d9f4fd0	0.07778895
150	0x3ccbbcf7	0.024870379
151	0x3e7c6e6f	0.24651502
152	0x3e7a5be4	0.24449116
153	0xbf0833ac	-0.53203845
154	0xbe5dfc78	-0.2167834
155	0x3e5ab964	0.21359783
156	0x3e02182d	0.12704535
157	0xbf2beb0b	-0.6715552
158	0xbf67fe0a	-0.9062201
159	0xbd9393ba	-0.07205911
160	0x3efd3a93	0.4945875
161	0x3e2825c1	0.16420652
162	0xbe86164e	-0.26188892
163	0xbd8ef0a4	-0.06979492
164	0x3e6a8745	0.22903164
165	0xbeb08867	-0.34479067
166	0x3e568e4c	0.2095272
167	0x3d1a6837	0.037697043
168	0x3d8658f2	0.06559934
169	0xbe4a858c	-0.19777507
170	0x3e5a575c	0.21322387
171	0x3e171443	0.14753823
172	0x3e867dbf	0.26267812
173	0x3ea3546a	0.3190034
174	0xbc2cb880	-0.010542035
175	0x3e40c0a5	0.18823488
176	0x3dc48698	0.09595984
177	0x3e7ed4cf	0.24885868
178	0x3eaad9d9	0.3336933
179	0x3d66e7f7	0.056373563
180	0xbd9d8fce	-0.07693444
181	0xbdf8d49c	-0.12149927
182	0x3f3bd4b2	0.7337142
183	0xbe204b4d	-0.15653725
184	0x3e1164e4	0.14198643
185	0x3e89561b	0.26823506
186	0x3e3829af	0.17984651
187	0x3cac2044	0.02101148
188	0x3e4a3d58	0.19749963
189	0xbe92e2c4	-0.28688633
190	0x3e44c7c8	0.19216835
191	0x3e3d2404	0.1847077
192	0x3e31700a	0.17327896
193	0x3e8dc26a	0.2768739
194	0x3df07bef	0.117423885
195	0xbf113ed0	-0.5673647
196	0x3e2c9ed8	0.16857469
197	0x3f536325	0.8257316
198	0x3eb26c26	0.34848136
199	0x3e2a9380	0.1665783
200	0x3e3076ad	0.17232771
201	0xbebf3daa	-0.37351733
202	0xbeac9938	-0.33710647
203	0xbe3661ef	-0.17810796
204	0xbd3906b1	-0.045172397
205	0xbf03d828	-0.51501703
206	0x3ea680ed	0.32520238
207	0x3edb7b71	0.42867616
208	0xbe47cba3	-0.19511275
209	0x3e1ac00c	0.15112323
210	0x3e794b60	0.2434516
211	0x3e8176a9	0.25285843
212	0x3e047b43	0.12937646
213	0x3e068252	0.13135651
214	0xbeabefda	-0.3358143
215	0x3e9f0f9a	0.3106659
216	0x3e54a049	0.20764269
217	0xbee775fe	-0.45207208
218	0x3eb70217	0.35743782
219	0x3e291a3c	0.16513914
220	0xbf34581d	-0.7044695
221	0xbe7f7ad9	-0.24949206
222	0xbeb7f499	-0.359288
223	0xbd70e742	-0.058814295
224	0x3e97c3b5	0.296415
225	0x3e0e8a6e	0.13919994
226	0xbe73ff7d	-0.2382793
227	0x3d9b27ee	0.07575975
228	0x3e94c5bb	0.29057106
229	0x3f2ac214	0.6670239
230	0x3e321155	0.17389424
231	0xbdb8897e	-0.090105996
232	0x3e297ba0	0.16551065
233	0xbe4ea028	-0.20178282
234	0xbed6bfa1	-0.41943076
235	0x3d413ba8	0.047176033
236	0x3e5467ad	0.20742674
237	0x3ea997e9	0.3312371
238	0x3e51a946	0.20474729
239	0x3e2cd15c	0.1687674
240	0x3d57b8b0	0.052666366
241	0x3ec8dff3	0.3923336
242	0x3f51f1c1	0.8200951
243	0x3e1698a8	0.14706671
244	0x3e920de2	0.28526217
245	0xbd63f51b	-0.055653673
246	0xbec0cf1e	-0.37658018
247	0xbd33cfea	-0.043899454
248	0x3f05c290	0.52250004
249	0x3e5a3a18	0.21311224
250	0x3e0b2418	0.13587987
251	0x3d90f619	0.070781894
252	0x3d277f12	0.040892668
253	0xbe9a8533	-0.30179748
254	0x3e0da814	0.13833648
255	0x3e551c83	0.20811658

fc3.bias f4 [4]
0	0x3eee2404	0.46511853
1	0x3eea8d93	0.45811138
2	0x3eecb887	0.46234533
3	0x3ed558b6	0.41669244
